cnn_model/cnn_model.pth (torch, 59028 bytes, 10 tensors)

conv_block1.0.weight f4 [8, 1, 3, 3]
000000 1b 7b db 3e 30 95 93 3e db d5 c2 3e 44 78 d2 3d
       0.4286736 0.2882476 0.38053784 0.10276845
000010 da f1 f4 3e 92 b3 8b 3e 81 00 34 be f7 64 eb 3d
       0.47840768 0.2728544 -0.17578317 0.11493867
000020 07 4a ac bd 60 e3 b3 bc 76 fc e7 bd 9a 21 79 3e
       -0.08412557 -0.021959007 -0.1132745 0.24329224
000030 20 1e 8b be 40 59 23 be 75 2f ca bd 13 3a 56 be
       -0.2717142 -0.15952015 -0.09872333 -0.20920591
000040 ca ad b5 3c ad eb ad be 3f bb bc 3e 56 aa 2d be
       0.022177596 -0.3396887 0.36861607 -0.16959509
000050 65 66 b5 3e db 54 57 3e a1 d7 ec 3d 74 14 cc 3e
       0.35429683 0.21028464 0.115645654 0.39859354
000060 68 e6 14 3e 29 6f d4 3e 89 f4 20 3e d8 59 6b bc
       0.14541018 0.41491058 0.15718283 -0.014364682
000070 d5 65 7b 3e 23 7d c2 38 3c b3 a1 3e 29 a7 0c 3f
       0.24550565 9.2739494e-05 0.31582057 0.54942566
000080 f2 6f c1 3e e5 30 e5 bc bc b5 bc 3e bc 04 54 3e
       0.3778072 -0.027977416 0.36857402 0.20704931
000090 ed f8 25 3e 6f 55 55 be a7 4f a7 be 1e a3 ea bd
       0.16208239 -0.20833372 -0.32677957 -0.114568934
0000a0 e6 3f 72 be d9 71 9b 3e 90 71 0a 3e 8e 97 3c 3e
       -0.23657188 0.30360296 0.13519883 0.18417189
0000b0 19 49 1d 3e 46 c2 11 bc 11 38 83 3e 4c d8 70 be
       0.15359916 -0.008896416 0.25628713 -0.2352001
0000c0 cf 05 a6 3b 83 44 7d be 10 22 b1 3d 65 e9 ff bd
       0.0050666104 -0.24733166 0.08649075 -0.12495688
0000d0 dd 62 b0 3d 8d f3 ab bd 47 b5 92 3e 67 35 46 be
       0.08612607 -0.08396063 0.2865393 -0.19356309
0000e0 cb 3b 4e be 55 a5 3b be 06 c9 9f 3e 72 f7 ee 3d
       -0.20139997 -0.18324788 0.31208056 0.1166829
0000f0 52 2e ad 3e 7e f4 87 be c7 f2 a9 be 51 d8 86 be
       0.33824402 -0.2655372 -0.33193037 -0.2633691
000100 bf 64 66 be 94 c4 0b 3e 28 06 f1 3d c1 11 8c 3e
       -0.22499369 0.13649207 0.11768752 0.27357295
000110 6b f2 34 be 3e 33 6d be cb 57 29 3e e8 3c 16 be
       -0.176706 -0.23164079 0.16537397 -0.14671671

conv_block1.0.bias f4 [8]
000000 ea 24 c7 3e 44 7e 69 bd 89 46 9f 3e 06 65 e5 bd
       0.3889535 -0.057005182 0.31108502 -0.11200909
000010 80 59 16 be 32 3f ea 3d 05 d5 a9 3d 4f fe a0 bd
       -0.14682579 0.11437835 0.082925834 -0.078610055

conv_block1.2.weight f4 [16, 8, 3, 3]
000000 6e 63 8a 3d 56 66 99 3d bf 83 bb bd 04 72 82 bd
       0.06757246 0.07490222 -0.09155988 -0.06369403
000010 98 6b d8 3d f2 23 2c bd d0 46 34 bd 04 7c eb bd
       0.10567397 -0.042026468 -0.044012845 -0.114982635
000020 81 0a 8b bd 31 ca e7 3c f0 8b 85 bc bc 6c b0 bd
       -0.06789113 0.028294655 -0.016302079 -0.086144894
000030 e4 ae de 3a af fd a6 bd 85 11 cf bd e7 35 85 bd
       0.0016989377 -0.08153855 -0.101107635 -0.06504422
000040 21 54 d4 bd 7f c6 9b bd 9d 29 eb 3d 09 a3 9a 3c
       -0.10367609 -0.076062195 0.114825465 0.01887657
000050 a3 ae 06 3d 58 db e4 bd 87 c6 a0 bd 90 16 24 bd
       0.03288139 -0.11174649 -0.07850366 -0.04006058
000060 56 ec 82 3c c1 f3 d5 bd 2b c9 4f bd 42 3e 91 bd
       0.015981834 -0.10446883 -0.050728958 -0.07091953
000070 a2 c4 e0 ba 6e b1 3c bd cc bd 1c bc b4 65 a4 bd
       -0.0017148445 -0.046067648 -0.0095667355 -0.08027211
000080 54 bd a5 bd 5f f4 8d bd 20 7d 25 bd 28 1d be bd
       -0.08092752 -0.06931376 -0.04040253 -0.09282905
000090 a6 2b ca 3d ab b6 bf bc c2 97 cf 3d 39 36 16 3d
       0.098716065 -0.023402533 0.101363674 0.036672805
0000a0 cf 6f cc bd 1d 4b a7 3d a5 ac 05 bd bb c1 39 bd
       -0.09982263 0.081686236 -0.03263535 -0.04535077
0000b0 54 12 c8 bd 6d cd f0 bd 7f 8d 08 3d c3 d0 d6 bc
       -0.09769121 -0.11757932 0.033338066 -0.026222592
0000c0 c7 12 3d 3d 71 b5 c6 bd a8 2f b1 3d b0 c9 b1 bd
       0.046160486 -0.09702576 0.08651668 -0.08681047
0000d0 0e f7 ad bc 0f dd c3 3c b1 9a 73 3d 59 3d c0 3d
       -0.021235969 0.02390912 0.059473697 0.09386701
0000e0 81 05 d9 3d 44 69 c2 bd 97 13 eb 3c 7f 9c 52 bd
       0.10596753 -0.09492734 0.028695865 -0.051418778
0000f0 d1 05 70 bc d1 31 b7 bd f8 59 d9 3d 56 72 b1 bd
       -0.014649824 -0.089450486 0.10612863 -0.08664386
000100 fe a9 80 3d f6 95 29 3d 8a a2 1b 3d ad b4 82 bd
       0.062824234 0.04140278 0.037996806 -0.063821174
000110 56 29 db 3d e2 db d2 3c 85 5c 77 3c 71 f2 d4 bd
       0.107012436 0.025739614 0.015097742 -0.103978045
000120 00 d6 d3 3d 1f 60 55 3d cb 33 2a bc 89 b8 74 3e
       0.10343552 0.05209362 -0.010388325 0.2389852
000130 9d 2a 45 3e 8b d0 8d 3d 48 1b 86 3d 64 29 1c 3e
       0.19254537 0.06924542 0.06548172 0.15250164
000140 f0 b7 58 3e 54 e5 28 bd e9 56 a2 bd de 5b 53 bd
       0.21163917 -0.04123433 -0.07926733 -0.051601283
000150 29 69 c4 bd b7 bd 00 3d 74 79 a5 3d a3 8d d7 bd
       -0.0959037 0.031430926 0.08079806 -0.10525062
000160 e1 d8 ee 3c e1 38 79 3d 5b 6d 0a 3e 67 ac b4 3d
       0.02915615 0.06084526 0.13518278 0.08821946
000170 ab fa 25 3e f7 28 38 3e dd 7a 35 3e 05 ac c2 3d
       0.16208903 0.17984377 0.1772265 0.09505466
000180 cc f3 e9 3c a8 62 bf 3d b8 4c 87 3d 62 db 92 3d
       0.028558634 0.09344989 0.0660643 0.0717075
000190 17 04 51 3e b3 97 43 3e c7 a8 d8 3d 7b 69 00 3e
       0.20411716 0.19100837 0.10579067 0.12540238
0001a0 33 28 fe 3d 46 71 de 3c 2d d9 c9 3d 78 f7 d2 3d
       0.12410011 0.027153622 0.09855876 0.10301107
0001b0 8d d1 a5 bd 99 fe 80 bc 03 d8 01 3e 18 7a 29 3d
       -0.08096609 -0.015746402 0.12680058 0.041376203
0001c0 08 04 5e bc 96 18 91 bd 6d 52 ae bd 3d e3 ed bd
       -0.013550766 -0.070847675 -0.08511815 -0.11615608
0001d0 b5 df 28 bd 3d c0 16 3d 64 d3 8f 3d 49 34 4a 3d
       -0.04122897 0.036804426 0.070227414 0.04936627
0001e0 c2 5d d2 bd 7f 2d 92 bd 64 18 9d bc d8 e4 f7 3d
       -0.10271789 -0.07137584 -0.01917667 0.12104195
0001f0 ad a5 c9 3c 1a 0c c0 bc 33 ab 3e 3d ab 0e 1d bd
       0.024615133 -0.02344327 0.046549987 -0.038344067
000200 b3 b7 53 bd 10 88 cd 3d a9 b8 1a bd e1 db 38 bb
       -0.05168886 0.100357175 -0.037773762 -0.002820723
000210 3b 06 ec bd 1a ef ad 3d e3 ed e4 3d d5 d6 43 3d
       -0.11524626 0.08492871 0.11178186 0.0478123
000220 cd c8 94 bd c7 ed dc bd 42 2f b8 bd ef 49 c9 3d
       -0.07264862 -0.1078754 -0.08993389 0.09828555
000230 3a 6c 85 3d 25 00 d6 3d e3 c9 83 3d 6e 85 fe 3c
       0.06514783 0.10449246 0.06434991 0.031069484
000240 00 72 96 ba 6d af b7 bd 2d 8d ce bd 59 d2 e1 bd
       -0.0011478066 -0.08969007 -0.10085521 -0.11026449
000250 1f 06 46 3d db e7 6b bd a0 6d c0 bc 0b b4 89 bd
       0.04834568 -0.05759416 -0.023489773 -0.067237936
000260 a5 17 a7 bc 6d 8f a9 bd c1 3c 9d bd 6a 1f 20 3d
       -0.020397017 -0.082793094 -0.076776035 0.03909246
000270 11 f2 0e bd 31 34 95 3d c0 08 1b bd c7 e1 b0 bd
       -0.03489882 0.07285345 -0.03785014 -0.086368136
000280 9d be aa bc 8c 10 6b bd c3 a6 13 bd a7 f1 e4 bd
       -0.020842845 -0.057388827 -0.03604771 -0.11178904
000290 77 12 8a 3d b4 2f a7 bd 05 ac 76 3d 32 a3 62 3d
       0.06741803 -0.081633955 0.060222644 0.055331416
0002a0 d6 ee ae 3d 03 a1 b6 bd 92 81 b2 3d 0a 3a 64 bd
       0.08541648 -0.08917429 0.0871612 -0.055719413
0002b0 0e 9b 33 3d 39 37 e3 3d 7f b2 86 bc 97 d8 1a b9
       0.043849044 0.11094517 -0.016442535 -0.0001476727
0002c0 f9 73 d7 bc d1 31 c8 bd 07 8b 6c 3d b9 8f ec bd
       -0.026300417 -0.09775127 0.057749774 -0.115508504
0002d0 a1 fb 95 3d 88 82 b5 3d cf 70 e5 3d 6c 14 df bc
       0.07323385 0.088627875 0.11203157 -0.027231418
0002e0 44 71 c5 bd 40 b5 da 3c 3f 51 86 3d a1 33 f0 bd
       -0.09640744 0.026697755 0.06558465 -0.117285974
0002f0 b3 61 da bc 4f 69 90 bd 6a 97 24 bc 6b 8d 6d bd
       -0.026657915 -0.07051336 -0.010045866 -0.057996195
000300 63 6f 44 bd 29 9b 18 bd 1c 5e e5 bd ba 4c c6 3d
       -0.04795779 -0.037257347 -0.111995906 0.09682603
000310 1e 98 ca 3d 40 a0 97 bc a8 b4 5a bc 21 a6 44 bd
       0.09892295 -0.01850903 -0.013348736 -0.048009995
000320 75 f7 d9 bd bf c0 ea bd 6f b7 33 3d f5 7d 84 bd
       -0.10642902 -0.11462545 0.043876108 -0.06469337
000330 73 ff 9a bd c4 92 15 bc b7 7c 20 bd 9a 12 1c bd
       -0.07568254 -0.00912923 -0.039181437 -0.038103677
000340 59 6b 7a 3b dd c4 cc bc fd 1e 26 bd df b0 66 bd
       0.0038210957 -0.024996215 -0.040556896 -0.05632102
000350 f8 46 c4 bd cd 7d ca 3d a5 fb 40 bd 75 c5 ff 3c
       -0.09583849 0.09887276 -0.047114987 0.031222085
000360 a7 f3 2b bd 1b 37 df 3b 57 53 da 3d 54 bf 5c 3d
       -0.04198041 0.006811989 0.10660427 0.053893402
000370 6a f8 d4 bd 33 c8 35 3d 48 a3 e4 3d 39 11 fc 3c
       -0.10398944 0.044380378 0.11163956 0.030769931
000380 64 ec a7 3d 82 b3 f1 3d 33 bc 80 bc 12 ef d2 3c
       0.08199385 0.118018165 -0.01571474 0.025748763
000390 1f 2b a4 bd 09 09 c2 bc 08 55 b5 3d 7e 49 7a 3d
       -0.08016037 -0.023685949 0.08854109 0.061105244
0003a0 6b c9 99 bd b7 3c c1 bd 24 bc a6 bd 86 3f f5 bd
       -0.075091206 -0.094354086 -0.08141354 -0.11975007
0003b0 93 0a bd bd 6d 20 f0 bc 62 d4 9e 3d 47 55 b9 3c
       -0.092305325 -0.029312337 0.077553526 0.022623671
0003c0 55 6d b6 bd 73 9d bb bd d0 27 8f 3d c2 13 b4 bd
       -0.08907572 -0.091608904 0.069900155 -0.08792831
0003d0 b9 92 85 bc a4 be 51 3d 28 2e 60 bd 03 56 58 bc
       -0.016305314 0.0512072 -0.054731518 -0.013204101
0003e0 17 e7 30 bc e3 8d e3 bc 90 5d 6d bd 88 84 c5 bd
       -0.010797284 -0.027777618 -0.057950556 -0.09644419
0003f0 ca 1e c3 bd 5c 50 80 bd db 24 ef 3d ca 83 69 bd
       -0.09527357 -0.06265327 0.116769515 -0.05701045

conv_block1.2.bias f4 [16]
000000 5c b7 9c 3d 25 d3 6f 3d 50 ba dc bd 88 6e e4 bb
       0.076521605 0.058550972 -0.10777724 -0.006971184
000010 47 9a 78 bc d2 28 0f 3d 5e 20 9e 3c 1b 33 f6 bd
       -0.015173501 0.03495104 0.019302543 -0.12021466
000020 89 3e 1f 3c 60 02 aa bb b5 ad d6 bc 56 8a e6 3d
       0.009719499 -0.0051882714 -0.026205877 0.11256854
000030 51 bc 0c bd 76 1e b7 3d 14 df 03 3d 65 71 8a bd
       -0.03435928 0.08941357 0.032195166 -0.067599095

conv_block2.0.weight f4 [16, 16, 3, 3]
000000 c8 1a a4 3c e2 85 8e 3d 86 8a 5e bd 6b 2d 5b bd
       0.020032302 0.0695913 -0.054331325 -0.05351011
000010 0a 57 a8 3d de 6d 89 3d b8 f2 3d bd 4f b7 4c 3d
       0.082197264 0.06710409 -0.046374053 0.049979504
000020 1e f8 32 bc bd 4c 96 bd ab ad 59 3c 5f 87 0a 3d
       -0.010923414 -0.073388554 0.013286035 0.033820506
000030 38 84 cd bc 18 cc 02 3d a5 fa 8e bd d4 7d 6b 3d
       -0.02508746 0.03193292 -0.069814004 0.057493046
000040 8b dd a7 3d 68 df 59 3d a9 15 67 3c 00 dd e0 3c
       0.08196553 0.053191572 0.014104285 0.027449131
000050 64 08 77 bd 4d 62 aa bc 7e ef 01 bc 9f fa 3d bd
       -0.060310736 -0.020798827 -0.007930635 -0.04638159
000060 09 48 7c bd 22 a4 65 3d 77 88 67 3d c0 bc 9b bd
       -0.061592136 0.056064732 0.056526627 -0.076043606
000070 4c b3 da 3c ee 5e 0b 3d 7e 67 a1 3d a9 0c 45 3d
       0.026696824 0.03402608 0.07881068 0.048107777
000080 ac ed 9b 3d 8a 51 da bc 16 eb 6f 3d d1 3e 8a 3d
       0.07613692 -0.026650209 0.058573805 0.067502625
000090 5b b8 9e bd 72 e1 87 bd 0e 5f 9d 3c ff 62 3f 3d
       -0.07750007 -0.06634797 0.019210365 0.04672527
0000a0 25 9a 26 bd 68 fb 1e 3c 73 07 65 b9 c3 27 a8 3c
       -0.040674347 0.009703495 -0.00021841917 0.020526772
0000b0 9b eb 3b bd 11 4d 4a 3d 27 ba 69 3d 27 06 5e bd
       -0.045878988 0.049389903 0.057062294 -0.054205086
0000c0 ad 07 41 3b 08 ba d4 3a 18 2d e7 3c 70 b2 9e 3d
       0.0029454038 0.0016229758 0.028219745 0.07748878
0000d0 fa 89 c3 3c ee 57 a2 bc 54 66 a8 3d 56 8a d8 bc
       0.023869503 -0.019817319 0.082226425 -0.026433151
0000e0 1d 0e a3 bc 66 75 81 3b 4a 1e 82 bd 9e 31 20 3c
       -0.01990419 0.0039507626 -0.063534334 0.009777455
0000f0 15 66 6d bd 6f 9b 93 3c be b0 57 3c bd 76 3c 3c
       -0.05795868 0.018018452 0.013164697 0.011502919
000100 d4 e7 8f bd 0b 14 a2 bd 44 47 1d 3d d0 7e 92 3d
       -0.070266396 -0.07913979 0.038398042 0.07153094
000110 d1 62 97 bd bd bc fc 3c d7 37 7b bd 70 2f ab 3b
       -0.073918946 0.030851716 -0.06133255 0.005224161
000120 b4 45 a9 3d c3 1e 87 3d ab 9b 65 bd 9a ca 55 3d
       0.08265248 0.06597664 -0.05605666 0.05219517
000130 72 60 38 3d 62 fe 15 ba 0f d2 9f 3d be 68 fd bc
       0.045013852 -0.0005721805 0.07803737 -0.030933734
000140 20 97 9b bc 0e da 30 bd 8c ee 39 3c 7b 5c af 3c
       -0.01899296 -0.043176703 0.011348378 0.021406403
000150 09 09 d4 3b 2b 94 41 bd e7 0a 19 bd 59 c7 e6 3c
       0.0064708036 -0.047260445 -0.037363913 0.028171228
000160 f8 3f 97 bd 37 27 5c bc bc 17 d9 ba ff f2 07 bd
       -0.07385248 -0.013437084 -0.001656286 -0.033190724
000170 c8 26 fc 3c 27 6d a0 3b dd c3 73 3d 35 a9 e0 bb
       0.030780211 0.0048958245 0.05951296 -0.0068561085
000180 b8 21 56 bd e2 87 73 3d c1 86 3b 3c 33 3e bb bc
       -0.05227825 0.05945576 0.011445702 -0.022856807
000190 f1 08 55 bd a6 e3 bf 3c 40 55 9d bd 47 5b c4 3c
       -0.05201048 0.02342398 -0.07682276 0.023969306
0001a0 3a 48 32 3d 48 3f 9b bd 82 2a 70 bd 2e 41 78 bd
       0.043525912 -0.07580429 -0.05863429 -0.060609035
0001b0 36 e8 8e 3d 8e 94 90 3d bb e0 a2 3b 00 12 9e 3d
       0.069778845 0.070595846 0.0049706376 0.07718277
0001c0 fc 7f ea bc 32 dc a7 bd 11 b4 e2 3c 91 26 e8 3c
       -0.02862548 -0.08196296 0.027673753 0.028338702
0001d0 30 de a3 3d f9 50 d2 3a 4f 14 84 3d 99 83 55 3d
       0.08001363 0.001604586 0.06449186 0.052127454
0001e0 c6 7b 68 3d 0c 58 ae bd b4 44 87 3d fc 2e 91 bd
       0.056758665 -0.08512887 0.06604901 -0.0708904
0001f0 2a 21 a8 3d 69 6e a7 39 16 dc 8b bd 54 9f d7 3c
       0.082094505 0.00031934984 -0.068290874 0.02632109
000200 76 e2 55 bc 5d 16 97 bd 8e 36 e3 bc 81 94 16 3c
       -0.013054481 -0.07377312 -0.027735975 0.0091906795
000210 22 3e 82 3d d5 23 aa bc be d4 54 3d 40 34 44 3c
       0.06359507 -0.02076904 0.0519607 0.011975348
000220 48 6a 8a 3b 92 d2 93 3c d2 31 58 bd a8 2a 8b bd
       0.0042240955 0.018044744 -0.052781887 -0.067952454
000230 87 d3 cd bc 45 e9 a0 bd a1 ea 23 bd 1b 6f 3b 3b
       -0.025125278 -0.07856993 -0.04001868 0.002860016
000240 1d 82 5d bd 3c aa 08 bd 92 7b 68 bc 11 8e 1a bc
       -0.054079164 -0.033365473 -0.014189618 -0.009433285
000250 dc 4b 3d bd af 54 78 3b 17 83 51 bc a3 fc ba 3c
       -0.046214923 0.0037892272 -0.012787602 0.022825545
000260 66 7c 3c 3b b2 ac f5 bc 8e d0 52 bd 96 0e ea bc
       0.002876067 -0.029989574 -0.051468424 -0.028571408
000270 46 f6 31 bd 06 04 30 bc 60 ac 46 3a bd 35 2f 3d
       -0.043447755 -0.010743147 0.00075787865 0.04277586
000280 13 07 30 3d ff d5 ec 3d ca 5b 37 bb dc 2c 7c bd
       0.042975497 0.11564254 -0.0027978295 -0.06156622
000290 e0 c0 18 3d 94 9f 66 bd f9 a9 3b bc f6 24 dc bc
       0.037293315 -0.05630453 -0.011454099 -0.026873093
0002a0 26 7a 01 bd d0 a1 fc bc d2 ef 9c 3d da f1 3f 3d
       -0.03161063 -0.030838877 0.076629296 0.046861507
0002b0 23 62 b8 3c 16 4f a6 3d 69 6b 9d bd 47 28 4d 3c
       0.022507733 0.08120553 -0.076865025 0.01252181
0002c0 e8 63 65 3d 7d a3 63 3d 51 a4 88 bd 97 b1 fb 3c
       0.05600348 0.055575836 -0.06671966 0.03072433
0002d0 29 55 33 bd 52 f4 b7 bb a4 a6 95 bc 88 53 8a bd
       -0.043782387 -0.005613842 -0.018267937 -0.067542136
0002e0 03 cc b5 bd bb 4b 6e bd 7e 2a 1f 3d e1 db 1f 3d
       -0.08876803 -0.05817769 0.038858883 0.039028052
0002f0 85 ee 7e bd 45 c5 e5 bc ad b4 7f bb 13 a5 95 bd
       -0.06223919 -0.028048167 -0.0039017603 -0.07306876
000300 36 8a 41 3d f8 82 7e 3d 81 47 31 3c 2a 39 7d bd
       0.04725095 0.06213662 0.0108202705 -0.061822094
000310 a2 d6 b2 3c c2 58 41 3d 76 71 8e 3d c6 6b 8d bd
       0.02183086 0.047203787 0.06955235 -0.06905322
000320 b5 b5 c2 bd bb e4 19 3d c8 dd 11 bc 55 8c 26 bc
       -0.09507314 0.03757165 -0.008902974 -0.010165294
000330 e4 36 d5 bc 9e 2b a5 bc be c1 f5 3d 98 d1 6a bc
       -0.02602715 -0.0201624 0.11999844 -0.014332198
000340 90 ca 76 3d 61 9c 98 3d 22 fe 25 3c ae 5f 90 3c
       0.060251772 0.07451702 0.010131391 0.017623749
000350 c3 be b9 bb 51 ec 69 3d 79 24 9a bd 9c 20 08 3d
       -0.0056684925 0.057110135 -0.07526488 0.033234224
000360 07 31 0e bc f9 4c a3 3c 3d 2a 93 bc 7f 86 ca bc
       -0.008678681 0.019934164 -0.017964477 -0.024722336
000370 dd bc c1 bc cd fe 3a 3d 58 f7 54 bd 0a b3 25 bd
       -0.023649627 0.045653153 -0.051993698 -0.040453948
000380 1e 6a 7d 3c 2c eb de bc a0 89 18 3d 99 f7 75 3d
       0.015467195 -0.027211748 0.037240624 0.06005058
000390 c8 9e 0f bc f9 80 9f 3d a5 25 13 bd 8b b2 41 bd
       -0.008765884 0.077882715 -0.035924572 -0.047289412
0003a0 c6 18 20 bd 93 be 6e bd c8 ce 67 bd ce fc 94 bd
       -0.039086126 -0.058287214 -0.056593686 -0.07274781
0003b0 88 dc 8d bd e8 58 b3 3c 5b 2a 55 3d 7e e7 a7 3d
       -0.069268286 0.02189298 0.052042346 0.081984505
0003c0 a4 77 91 3d 2f 42 7a bb 91 33 86 3c c9 8c 2d bd
       0.07102898 -0.003818642 0.01638201 -0.04237059
0003d0 a9 4f 0c 3d 83 a4 ae bd f8 ee 2a 3d 2f 74 22 3b
       0.034255657 -0.08527472 0.041731805 0.002478849
0003e0 04 89 0d 3c 8f 8f f6 3c 86 c7 27 bd 15 88 a8 3d
       0.008638624 0.030097751 -0.040961765 0.082290806
0003f0 40 9e 18 3d 80 31 57 3d 43 4d 54 3c bc f5 50 3d
       0.037260294 0.05253744 0.012957874 0.0510156

conv_block2.0.bias f4 [16]
000000 04 44 82 bd bb 56 13 bd fc 58 47 bd e0 60 7c 3d
       -0.06360629 -0.035971384 -0.048668846 0.061615825
000010 43 ea a6 3d 04 49 8c 3d f8 c4 6e bd 91 7d 2d bd
       0.081501506 0.06849864 -0.058293313 -0.042356078
000020 6f e3 96 3d 91 e4 3a bd 0e 59 55 bd 8b d5 4c 3d
       0.07367598 -0.045628134 -0.052086882 0.050008338
000030 aa 03 35 bd 72 0b e4 bb b7 49 e6 3c 94 cc 7c 3d
       -0.044192947 -0.006959372 0.028111322 0.06171854

conv_block2.2.weight f4 [16, 16, 3, 3]
000000 42 76 8d bb 3b 41 98 bd 89 91 46 3d 89 ef ad 3d
       -0.004317076 -0.07434317 0.048478637 0.08492953
000010 60 34 81 bd 6f af 73 bb 2a 31 6a bd e1 0b 2b bd
       -0.06308818 -0.0037183424 -0.057175793 -0.041759375
000020 0d e9 ef 3c 25 57 15 3d 97 4c 33 3d 7b 84 91 bd
       0.029285932 0.03646006 0.043774214 -0.07105347
000030 b2 11 ae bc 1d 2e 04 3d 5a ba 54 bc 22 62 c0 bc
       -0.021248672 0.03227054 -0.012983883 -0.023484293
000040 c4 26 48 bd 2f 5d 97 3d 17 b8 a3 bd c9 ab 83 bd
       -0.048865095 0.0739082 -0.07994097 -0.0642925
000050 f7 ea b9 3d 00 1b 93 bd 1b 16 52 3d 11 64 ac bc
       0.09078019 -0.07182884 0.051290613 -0.02104381
000060 72 88 d1 bc 5e b2 3a bd 1e 25 9a 3d a4 5e 89 3d
       -0.025577758 -0.04558026 0.07526611 0.067075044
000070 05 70 22 bd ea e4 e5 3c 36 6a 8b bb 0d c9 9f bd
       -0.03965761 0.028063256 -0.0042546047 -0.07802019
000080 c1 4e 8f bc 55 6f 95 3d 71 a0 e0 bc a3 c6 2d 3d
       -0.017493607 0.072966255 -0.027420254 0.042425763
000090 f4 9a 2e bc cd 4e c8 3b 58 0d c7 bc 25 c4 e8 3c
       -0.010657061 0.0061129094 -0.024298355 0.028413842
0000a0 df bc b7 bd 3c c1 7f 3c b2 59 2e 3d 60 dd 40 bb
       -0.08971571 0.0156100355 0.04256601 -0.0029428825
0000b0 94 10 3a 3d 43 f1 30 bb 78 a5 9b bc 11 73 28 bd
       0.045425966 -0.0026999272 -0.0189998 -0.04112536
0000c0 2d e3 bd bd 12 f7 07 3d 62 42 51 3d fe 7e 6f bd
       -0.09271846 0.03319461 0.0510887 -0.05847072
0000d0 64 4b a7 3c cb dc cf bc 13 be 8f 3d 0c 4c eb bc
       0.020421691 -0.025373837 0.07018676 -0.028722785
0000e0 72 45 8d 3d 0e 6f 71 3d 12 ce 3c 3d 5a 46 69 3d
       0.06898011 0.0589438 0.04609496 0.056951858
0000f0 80 ed d4 3c 53 7a e7 3c 8e 16 91 bd 6e 34 a0 bc
       0.025992155 0.02825657 -0.0708438 -0.01955625
000100 ef ee 2a bc 81 c5 25 3d 19 e3 0c bd 14 fe 15 3d
       -0.010432943 0.040471558 -0.034396265 0.03661926
000110 28 56 65 3d e9 3f 11 3d 00 97 2b 3d 09 45 46 bc
       0.055990368 0.03546134 0.04189205 -0.01210142
000120 98 94 d3 3d 9f 57 9e bd ad ff f6 3c 49 83 a8 3d
       0.103310764 -0.07731556 0.030151213 0.08228166
000130 5a b1 02 bd 89 8d de bd 5d db 20 3e d1 5a 14 3c
       -0.031907417 -0.108668394 0.1570868 0.009054855
000140 77 cf cf 3c 8f 2c b7 bd 17 74 78 bd e3 7c e1 3c
       0.025367482 -0.08944046 -0.060657587 0.027525371
000150 4e 01 b1 bd a6 76 0f 3c ef ab de 3c fe 72 b9 bc
       -0.08642827 0.008756315 0.027181594 -0.02263784
000160 cb 22 17 3d 09 bc 87 3d 8f 17 d0 bd a9 0c b1 bd
       0.036898416 0.06627662 -0.101607434 -0.08644993
000170 29 68 b8 3d f7 e9 80 bd 61 92 ea 3a 8c be e4 3b
       0.09004242 -0.06294625 0.0017896408 0.006980723
000180 3b 89 fd 3c cd 34 72 bd 3a f8 ae 3b bb 9b 12 bd
       0.030949226 -0.059132386 0.0053396495 -0.035793047
000190 b4 95 14 bd ab 58 10 bd 5c 2c e7 3b 9d b9 63 3d
       -0.03627558 -0.03524081 0.0070548486 0.055596936
0001a0 2c 1d 00 3c 39 d7 2a bb 14 0c 94 3d cd 26 9c 3d
       0.007819455 -0.0026068224 0.07228866 0.07624588
0001b0 ec ed fb 3c 2f 7a 84 bd e7 4f 02 3c 8e c1 b1 3d
       0.030753098 -0.06468617 0.0079536205 0.08679496
0001c0 a9 d3 84 bd 9b 6c dd bd ea 5d 85 3d 4a 78 d9 3d
       -0.064856835 -0.108117305 0.06512053 0.106186464
0001d0 a3 8d d6 bd ee 54 2b bd bf bc e7 bc 00 42 93 bd
       -0.10476234 -0.041829042 -0.028288243 -0.07190323
0001e0 32 1e 55 bd 35 f6 89 3d c6 78 8d 3d 20 6b 7a bd
       -0.05203075 0.067364134 0.06907801 -0.06113732
0001f0 35 95 80 3b 85 f6 80 bd b9 c6 41 3d 8a 69 8a bd
       0.003924037 -0.0629702 0.047308657 -0.06758411
000200 a0 11 61 bd 51 2d af bc d5 d2 0c 3c 9e 5f 34 3d
       -0.05494845 -0.021383913 0.008595188 0.0440365
000210 17 0c 20 bc 11 7f f6 3c 51 2f 68 3d 5e 58 b2 bb
       -0.009768507 0.030089887 0.05668575 -0.005442663
000220 c4 86 05 3c 20 01 ac 3b 24 96 9b ba b1 a6 4b 3d
       0.008149806 0.0052491575 -0.0011870307 0.049719516
000230 68 e7 35 3d e6 41 36 bd ff 18 a3 3d a9 f8 42 3d
       0.04441014 -0.04449644 0.07963752 0.047600422
000240 f2 e0 81 bc 13 24 90 3d e2 8c af 3b b6 e4 58 3d
       -0.015854333 0.070381306 0.0053573707 0.05295249
000250 6c 30 88 bd 78 b1 a2 3d 87 87 a5 3d 2f 43 72 bd
       -0.06649861 0.07944006 0.080824904 -0.059146103
000260 ae 4c 91 bd 3c 1f df bc 27 99 62 bd 37 03 ca 3c
       -0.070947036 -0.027236573 -0.05532184 0.024659736
000270 8b fa 30 3d 1f af cd 3b ff 7e a3 3d be 8b b9 3c
       0.043207686 0.0062769796 0.07983207 0.022649642
000280 cd 06 05 bc 2b cd 87 bd 5b 62 e4 3c 21 9c ac bd
       -0.008119297 -0.066309296 0.02787893 -0.08428217
000290 8c 24 a8 bc 8b d6 0c 3c a8 01 36 bd 5b a7 02 3d
       -0.02052524 0.008596073 -0.044435173 0.031897884
0002a0 48 d0 fd 3c 95 0d b6 3d d5 5b ae 3d 3e 09 55 bd
       0.030983105 0.08889309 0.08513609 -0.052010767
0002b0 54 d5 e9 bd 0a 40 cf bd e2 ca f3 bd 77 fb 77 bd
       -0.11417642 -0.10119636 -0.11903931 -0.06054255
0002c0 2c 93 ad bd b2 27 01 be 98 b6 c3 3c 21 3d 05 3e
       -0.084753364 -0.12612799 0.023890778 0.130116
0002d0 66 f2 68 bd c2 14 d3 bd d1 35 c9 3b 3d 9f df 3c
       -0.056871794 -0.103066936 0.0061404486 0.02729761
0002e0 32 02 c4 3d 94 fc 65 3d 39 89 c6 3d 24 66 b1 bc
       0.09570731 0.05614908 0.09694142 -0.02165515
0002f0 16 67 d7 3d 93 8b 31 bd 85 57 e0 bc 26 0f 8c 3d
       0.10517709 -0.043346 -0.027385483 0.06838827
000300 3b f6 9b 3a 16 90 80 3d 3c 62 8d bd f7 f0 8f 3d
       0.0011898944 0.06277482 -0.06903502 0.07028382
000310 d8 22 a4 3d e9 80 ba 3c 2b ac 89 3d 23 bd 73 bd
       0.080144584 0.022766547 0.067222916 -0.059506547
000320 2a c1 96 bc 33 cb cf 3c 05 e1 40 3d ad 4b 36 bd
       -0.018402655 0.025365448 0.047089595 -0.044505764
000330 1a 37 59 3d 51 b3 e0 bc e6 2e 36 bd 54 2b 7f 3c
       0.053031065 -0.027429255 -0.04447832 0.015574295
000340 79 71 83 bd a8 14 9b bd e1 0d f8 3c 15 66 f5 3c
       -0.064181276 -0.07572299 0.030280055 0.029955903
000350 db 7a f9 3c cf a6 00 bc 5e 26 7f bd a9 f8 8a bd
       0.03045409 -0.00785227 -0.06229245 -0.067857094
000360 34 a5 4c 3e 17 c0 2a bd 63 46 44 3c 8b 0e 01 3e
       0.19984895 -0.041687097 0.011979672 0.12603204
000370 c2 59 7f bb 14 8b 02 be ad 6c 64 bd 32 f9 1f be
       -0.0038963412 -0.12748367 -0.055767704 -0.15622404
000380 cb 9d 42 3d 50 2e b1 bd 73 37 9e bd 87 3d 83 bd
       0.047513764 -0.086514115 -0.0772542 -0.0640822
000390 56 86 6e 3d d6 e9 89 3d 23 b7 50 3d ec b1 88 3d
       0.05823358 0.06734054 0.050955903 0.06674561
0003a0 f4 61 c7 bc d1 bd 3d bd 57 21 6d bd 28 dd c0 3b
       -0.0243387 -0.0463236 -0.057893123 0.005885739
0003b0 c2 be 87 3b ce 41 f7 bc 67 01 b9 bd 33 2d f4 3b
       0.004142613 -0.030182745 -0.090334706 0.007451677
0003c0 44 96 91 bd d0 f2 12 3c 6b ea 0b 3d 7e bc 01 3d
       -0.07108739 0.008969024 0.034159105 0.0316739
0003d0 76 da 4c bd 12 9e 9d 3d 79 d0 3d bc d5 74 11 3d
       -0.050013028 0.07696165 -0.011585348 0.03551181
0003e0 61 e5 56 3d 34 fb 2b 3d c8 ab 6b 3d ee 42 48 3d
       0.052464847 0.041987613 0.05753687 0.048891954
0003f0 4d d2 c0 3d 95 fe 25 3a 36 25 aa 3c e2 0b 9a bc
       0.09415112 0.0006332186 0.020769697 -0.018804494

conv_block2.2.bias f4 [16]
000000 60 ae 8b 3d cb fd ce 3d 6f 78 8a 3d 96 e3 39 bd
       0.06820369 0.10107001 0.06761252 -0.04538306
000010 19 b1 b9 bc 89 0f b5 bc 42 a2 2e bd 0d 80 4c 3d
       -0.022667455 -0.022102134 -0.04263521 0.049926806
000020 ae 7e b3 bb 67 07 21 bd ee 1e 2e bd c0 5a a3 bd
       -0.005477748 -0.0393137 -0.042509966 -0.079762936
000030 4a da 14 3c f9 78 25 3d ac 43 77 3d 09 f0 27 3d
       0.009085247 0.04039857 0.06036727 0.0410004

fully_connected.1.weight f4 [10, 784]
000000 b1 38 b7 3c de 92 45 3c f3 82 88 bb 69 b9 db bc
       0.0223659 0.012058942 -0.004166001 -0.026821809
000010 8a f5 03 3d a4 ae c8 bc 02 0e 9a bc 9c 98 3a 3c
       0.032216586 -0.024497338 -0.018805508 0.011388924
000020 4f 04 80 3c ed 41 a9 bc 61 f7 c5 3c 26 49 72 bc
       0.015627054 -0.020661319 0.024165811 -0.014787948
000030 00 4b e3 3c d7 02 9d 3c c3 e7 c9 3b 50 df 7e bc
       0.027745724 0.019166393 0.0061616614 -0.015556172
000040 73 de b2 bc a4 2f c9 3c fd ec 10 3c df 77 dc b9
       -0.021834588 0.02455885 0.008845565 -0.0004205098
000050 b5 a2 31 3d ef 73 32 bc 70 3a 78 bc f7 c0 54 3c
       0.04336806 -0.010891899 -0.015150651 0.0129854595
000060 9a 80 80 3d f6 09 3a bd e7 b0 a6 ba eb ee c1 bb
       0.06274529 -0.045419656 -0.0012717516 -0.005918374
000070 2d 3d b0 bc 9e 00 5a bc 98 1f 4d 3c b3 37 51 3d
       -0.021513546 -0.013305811 0.01251974 0.05107851
000080 06 5d 5f bd aa c8 4c bb 2a 9e cd 3c 65 af a9 bb
       -0.054532073 -0.0031247535 0.025099833 -0.0051783794
000090 4a 63 ad bb 65 9c ed 3c 49 1f 90 bc d7 0d 9e 3b
       -0.005291377 0.029005239 -0.017593043 0.004823427
0000a0 80 5e 1e bd 11 ed 42 bc 35 57 81 3c 82 49 29 3c
       -0.03866434 -0.011897341 0.015788654 0.010332467
0000b0 d9 46 b2 bc 45 85 ef bc 83 4e 2c bd 94 a1 33 bd
       -0.021762298 -0.029238353 -0.042067062 -0.043855265
0000c0 98 46 73 bc 17 26 e9 bc 05 21 85 bb e6 29 8f bc
       -0.014848374 -0.028460545 -0.004062774 -0.017476033
0000d0 70 96 a0 3c 90 ab b7 3c db 38 ec 3c e8 23 d2 bc
       0.019602984 0.022420675 0.028835705 -0.025651887
0000e0 81 54 cd bc f3 c0 88 3b fe fd 55 bb 60 68 25 3c
       -0.025064709 0.004173392 -0.0032652612 0.010095686
0000f0 3e 13 3f bd a2 0a d0 bb 11 34 30 bd 75 74 f2 bc
       -0.04664921 -0.006348924 -0.043018404 -0.029596547
000100 c7 dc 80 bb 91 94 19 bc 81 04 37 bd 45 eb 55 bc
       -0.0039325687 -0.0093738 -0.04468203 -0.013056581
000110 16 1b ac bc a0 11 03 bc 19 d5 a0 bb 37 13 9f bc
       -0.02100901 -0.007999808 -0.0049082157 -0.019418342
000120 73 f3 bd bc e1 37 4b 3d 43 a3 e2 bc cf 19 5c bd
       -0.023187375 0.049613837 -0.02766574 -0.05373555
000130 80 13 82 3c 80 b7 9e bc 5e 99 47 bc c3 ea cc bc
       0.015878439 -0.019374609 -0.012182562 -0.025014287
000140 28 b7 08 3d 43 d5 2d bd a2 c1 17 3d 59 11 29 3d
       0.033377796 -0.04243971 0.037049897 0.04127631
000150 71 3c 2b bc 2e 6e 95 39 8d 80 1a bc 80 91 c6 bc
       -0.010451422 0.00028501585 -0.009430063 -0.024239302
000160 d7 ca a9 3c 06 6e 4a bc df 5f 4a 3b 0b 05 0e bd
       0.020726604 -0.012355333 0.0030879898 -0.034672778
000170 ba eb 86 bc 93 70 cc bb 5c b9 63 bb c9 7c 2a bd
       -0.016469825 -0.006239006 -0.0034747934 -0.04162291
000180 2f b5 23 bd 18 ee 2d bd 50 04 fe bc 80 54 18 bd
       -0.039967712 -0.042463392 -0.031007916 -0.03718996
000190 31 7d ae bc bd 7c e0 bb 83 21 01 3d 73 4c d2 bc
       -0.02129993 -0.0068508075 0.0315261 -0.02567122
0001a0 c0 0a de bc ba dc 00 bd 81 04 ed 3c 91 fa 00 bc
       -0.027104735 -0.0314605 0.028932812 -0.00787224
0001b0 0f d9 4a bc 29 a3 8e 3c 09 ab f6 bc eb 0e 55 bc
       -0.012380852 0.017411785 -0.030110853 -0.013004045
0001c0 f1 4f 06 3d 00 0b a6 3c fc ef fc bc 96 91 0b bd
       0.03279108 0.020268917 -0.030876152 -0.03407439
0001d0 f6 89 fa bb 92 30 93 3b 83 f4 ac bc 1d e7 cb 3c
       -0.0076458408 0.004491874 -0.021112686 0.024890477
0001e0 b4 b5 9e bc df 45 83 bd d3 9e e5 3b a6 7d 31 bc
       -0.019373752 -0.06409811 0.0070074587 -0.01083318
0001f0 46 77 8d bb f4 1d 33 bd 9d 2d 16 bc 96 f1 b5 bc
       -0.004317197 -0.043729737 -0.0091661485 -0.022209924
000200 1a 8c 61 bd 3a ad e4 bc e5 33 2a bc 42 ca bd bc
       -0.055065252 -0.027914632 -0.010388349 -0.023167733
000210 7f 64 c8 3b 91 e6 9a 3c bc 8f 2c bc 76 69 48 bd
       0.0061154957 0.01890877 -0.010532316 -0.0489287
000220 35 b8 42 bb 98 73 c3 bc d3 d9 70 3c 18 09 cf bc
       -0.0029711847 -0.02385883 0.014700371 -0.02527289
000230 ca a8 aa bc 8a b1 16 ba d7 13 0a 3d e9 2c af 39
       -0.020832438 -0.0005748501 0.033710327 0.00033412062
000240 58 bf 5d bc cc 0a 44 bc dd 77 f0 bc 81 72 34 bb
       -0.013534389 -0.011965465 -0.02935403 -0.002753407
000250 05 2d 2c bb dd c7 a8 3b 88 d2 72 3c 53 5f 57 3c
       -0.002627195 0.0051507787 0.014820702 0.013145286
000260 58 41 a0 3c ca 3b df bb 7f 83 5b bc 35 cb e4 3c
       0.019562408 -0.0068125473 -0.01339805 0.027928928
000270 83 b2 14 3d ff 96 e4 3c 19 f4 03 3d 68 62 83 3c
       0.036303055 0.027904032 0.03221521 0.016038135
000280 7f 75 fc 3c 22 a4 10 3d 71 c5 aa bc 65 fa c0 bc
       0.030817745 0.03531278 -0.0208461 -0.023556897
000290 24 1a 0a bc d7 15 16 3d 84 14 07 3d 51 a7 be ba
       -0.008429084 0.03664192 0.03297855 -0.0014545714
0002a0 83 cc cf bc 91 11 c9 bb ca e9 af 3c 4a 69 1b 3d
       -0.025366073 -0.0061361273 0.021473784 0.03794221
0002b0 14 0f da 3c 52 ef 95 bc 23 f8 fd 3c d5 b5 e3 3c
       0.026618518 -0.018302593 0.03100211 0.027796665
0002c0 9b ed 32 bb 03 e8 98 bc ee 27 8f 3c c5 d4 86 bc
       -0.0027302268 -0.01866532 0.017475095 -0.016458878
0002d0 67 89 0d 3d 03 51 f6 bb 42 11 6d bb b0 25 23 bc
       0.034554865 -0.0075169816 -0.0036173617 -0.009957716
0002e0 54 d6 de bc ec 62 8b bc 10 3e 75 bc 34 96 97 bc
       -0.027201809 -0.017014943 -0.01496841 -0.01850424
0002f0 db 95 ec 3c db 42 03 3c 3b da 14 bc 17 94 06 bd
       0.02888005 0.008011545 -0.009085233 -0.032856073
000300 6e 95 10 bd 90 77 86 bc 13 11 4f 3c 13 ea 0a bd
       -0.035298757 -0.016414434 0.012638348 -0.033914637
000310 59 c9 a3 3c d1 3b e0 3c ae 9b a8 3b 4c ed f9 bc
       0.019993471 0.027372273 0.0051455116 -0.03050866
000320 f0 66 d1 3b f7 ff 6c bc 9b d6 1a 3c b7 b3 97 bb
       0.006390445 -0.014465324 0.00945058 -0.004629578
000330 0d 21 fc 3a 23 79 a5 bc 88 29 18 3d e1 08 e0 3b
       0.0019235924 -0.020199364 0.037148982 0.006836996
000340 68 dd 0a bd 55 e6 a7 b8 18 ec e3 3c ca 8c 77 3c
       -0.033902556 -8.006083e-05 0.02782254 0.01510925
000350 e3 94 28 3d 5d 15 9c 3c 89 9e ef 3a ec 13 bb bc
       0.041157614 0.019053156 0.00182815 -0.022836648
000360 e0 6e 4e bc dd 7b 41 3d dc a4 19 3d 82 fe 41 3d
       -0.012599677 0.047237266 0.037510738 0.04736186
000370 7c c6 11 be af ec b9 bb 45 ff 95 3d b8 eb fd bc
       -0.14235872 -0.005673967 0.073240794 -0.030996189
000380 63 43 51 3c c6 46 8d 39 bf 6c 2e 3c c5 a4 76 bd
       0.012772414 0.00026946346 0.010646044 -0.06021573
000390 c6 7b c4 3c 02 cd 82 3d 48 9b a5 bb d8 49 c6 bb
       0.023984801 0.063867584 -0.0050539114 -0.0060512833
0003a0 bc a4 03 3d 79 d8 1b bd 07 73 28 bd 6c 40 82 3c
       0.032139525 -0.03804824 -0.041125324 0.01589986
0003b0 56 a9 93 bc ca 8c 73 bc f7 54 df bc 5d 40 11 bc
       -0.018025082 -0.01486511 -0.027262194 -0.008865443
0003c0 7a d1 dc 3c 00 2c 8f bd 51 f7 26 bd a8 8f 1a bc
       0.026955355 -0.06990814 -0.040763203 -0.009433664
0003d0 9e 88 e7 bc 1f a5 de 3b a6 6b f1 bb 8a 18 d7 3c
       -0.028263386 0.0067945863 -0.007367569 0.026256818
0003e0 e8 89 16 bd b8 17 55 ba 58 f0 71 3c ca 5f a3 3b
       -0.03675261 -0.00081288395 0.014766775 0.004985784
0003f0 b0 cc 1f bc 46 64 01 3d 6b 6d d1 bc 1c 8c 13 3d
       -0.009753391 0.03158977 -0.02556487 0.03602229

fully_connected.1.bias f4 [10]
000000 8b c1 94 3b fb 28 36 3d 77 dc e0 bc cd b3 af bc
       0.0045396737 0.044472676 -0.027448876 -0.02144804
000010 cc e9 30 3c f5 c7 f5 bc 9d c0 d4 bc 7c d3 22 bc
       0.010797929 -0.030002574 -0.025970751 -0.009938117
000020 0d 21 0b bd d9 f7 e7 3c
       -0.033967067 0.028316425
