cnn_model/custom.pth (torch, 58538 bytes, 10 tensors)

conv_block1.0.weight f4 [8, 1, 3, 3]
000000 d9 5c d3 3e d5 f6 a2 3e 71 b0 ce 3e 64 cf b0 3d
       0.41281775 0.31828943 0.4036899 0.086333066
000010 ea 32 01 3f 75 88 95 3e 0f 51 5f be 70 8b cb 3d
       0.50468314 0.2920567 -0.21808265 0.09938705
000020 ad 25 ac bd 24 d0 a9 bc 44 de df bd 87 e2 7e 3e
       -0.084056236 -0.020729132 -0.10931066 0.24891101
000030 27 95 8c be 32 60 25 be 05 7d c8 bd f9 cd 58 be
       -0.27457544 -0.16149977 -0.097894706 -0.21172322
000040 03 90 9b 3c f9 c4 ae be 8f 56 b0 3e 3a f8 28 be
       0.018989569 -0.34134653 0.3444104 -0.16500941
000050 61 9f b8 3e 60 94 55 3e 2d c8 21 3e 1f 31 d8 3e
       0.36059096 0.20857382 0.15799017 0.42224976
000060 a7 8a 14 3e ea 24 e3 3e c9 fc 24 3e 11 0f 24 bd
       0.14506017 0.443641 0.16112055 -0.04005343
000070 c6 9d 81 3e 24 01 b0 bb e3 9c 9d 3e 91 49 17 3f
       0.25315684 -0.0053712297 0.30783758 0.5909663
000080 42 de c8 3e cc 49 14 bd 49 d5 c9 3e 12 b4 58 3e
       0.3923207 -0.03620319 0.39420536 0.21162441
000090 da b7 23 3e 4a 49 5d be 8e d2 aa be 93 1e e3 bd
       0.15988103 -0.21609989 -0.33363765 -0.11089816
0000a0 12 27 6f be ba 00 9f 3e 88 2f 16 3e 1f e1 4a 3e
       -0.23354748 0.31055242 0.14666569 0.1981244
0000b0 b5 60 27 3e 78 86 e4 bb e4 84 82 3e c7 ab 74 be
       0.16345485 -0.0069740377 0.25492013 -0.23893653
0000c0 99 a4 80 3b 70 1c 80 be 8e 7c a3 3d 39 05 fe bd
       0.0039258716 -0.25021696 0.07982741 -0.1240334
0000d0 f6 d7 ac 3d 4d ae b5 bd 77 f8 91 3e 99 f8 4a be
       0.08439629 -0.08871136 0.28509876 -0.19821395
0000e0 62 9a 57 be 3b dc 35 be 92 e7 a0 3e c5 0b eb 3d
       -0.21054986 -0.17759793 0.31426674 0.11476854
0000f0 52 7f b2 3e 17 63 84 be 90 58 aa be fb 65 86 be
       0.34862763 -0.2585685 -0.33270693 -0.2624968
000100 33 9d 61 be d2 48 10 3e 22 37 fe 3d 1a f8 8e 3e
       -0.22032623 0.14090279 0.124128595 0.2792366
000110 91 a6 34 be b3 ca 68 be df e8 28 3e e1 f1 1a be
       -0.17641665 -0.22733574 0.16495083 -0.15131332

conv_block1.0.bias f4 [8]
000000 ea 82 e8 3e a9 2e 51 bd 32 4c b1 3e 4f 5e 97 bd
       0.4541238 -0.05106989 0.34628445 -0.07391035
000010 9f 49 0f be ea 0d e9 3d 72 cf b1 3d 26 ab 9e bd
       -0.13992928 0.11379607 0.08682145 -0.07747488

conv_block1.2.weight f4 [16, 8, 3, 3]
000000 9c d2 86 3d 2f 74 92 3d 27 59 c2 bd fd d9 85 bd
       0.06583139 0.071510665 -0.09489661 -0.065357186
000010 07 bc d3 3d 27 9b 33 bd 8c 73 36 bd ef 19 ec bd
       0.10338598 -0.043849137 -0.044543788 -0.11528384
000020 26 3f 8b bd ea 20 e7 3c 5c b8 84 bc e1 12 b0 bd
       -0.06799154 0.028213937 -0.01620119 -0.08597351
000030 71 b6 cf 3a f4 24 a7 bd 35 3c cf bd f6 ee 84 bd
       0.0015847218 -0.08161345 -0.101189055 -0.06490891
000040 16 32 d4 bd de ab 9b bd 47 3a e8 3d c7 7c 86 3c
       -0.10361116 -0.076011404 0.113392405 0.01641692
000050 dc 74 fd 3c 18 7b e6 bd c4 64 a2 bd 79 ac 26 bd
       0.030939512 -0.11253947 -0.07929376 -0.040691826
000060 20 d5 7c 3c 78 4a d6 bd 19 c4 4f bd 2c 2d 95 bd
       0.015431672 -0.104634225 -0.050724123 -0.072840065
000070 6a 29 88 bb d4 4c 44 bd 2d e1 28 bc 32 f5 a4 bd
       -0.0041553276 -0.04792483 -0.010307592 -0.0805458
000080 75 d5 a5 bd 1a 98 8e bd 12 b5 25 bd 74 e4 bd bd
       -0.08097354 -0.06962605 -0.040455885 -0.092720896
000090 94 2d ca 3d f7 e2 bf bc 5d a5 cf 3d df 00 16 3d
       0.098719746 -0.023423655 0.101389624 0.036621924
0000a0 73 5b cc bd d6 62 a7 3d b5 49 06 bd d8 04 3a bd
       -0.0997838 0.08173148 -0.032785136 -0.045414776
0000b0 24 eb c7 bd e1 94 f0 bd 72 59 0a 3d 0a 79 d5 bc
       -0.097616464 -0.117471464 0.033776708 -0.026058692
0000c0 df e1 3d 3d de d5 c6 bd ca db b0 3d d6 d3 b1 bd
       0.046357986 -0.09708761 0.086356714 -0.086829826
0000d0 31 48 ae bc 9a 67 c3 3c 0a 63 73 3d 54 6a bf 3d
       -0.021274658 0.023853112 0.059420623 0.09346452
0000e0 df 11 d9 3d 66 92 c1 bd 8e a5 ea 3c 9f ba 53 bd
       0.10599112 -0.094517514 0.028643396 -0.051691648
0000f0 c7 2f 75 bc 79 f5 b7 bd 5b f9 d8 3d bc b2 b1 bd
       -0.014965004 -0.08982367 0.10594436 -0.08676669
000100 ef 87 80 3d 9a 88 29 3d 98 39 1b 3d f5 ab 82 bd
       0.06275927 0.04139004 0.037896723 -0.063804545
000110 b5 2b db 3d 31 d1 d2 3c 31 05 78 3c 9a e7 d4 bd
       0.10701696 0.025734516 0.0151379565 -0.10395737
000120 f4 9d c9 3d 07 8b 7f 3d 00 bd c5 bb 4d d5 72 3e
       0.0984458 0.062388446 -0.0060344934 0.2371418
000130 e9 b2 59 3e aa fd a4 3d bb 21 89 3d 72 3e 2a 3e
       0.21259655 0.08056195 0.06695887 0.16625383
000140 64 01 61 3e c5 1b 2c bd d4 2a a8 bd 65 ce 5a bd
       0.21973187 -0.04201867 -0.08211294 -0.05341949
000150 ef 26 c6 bd 22 f9 ec 3c 5d 54 a2 3d 65 04 d1 bd
       -0.09675395 0.02892739 0.07926247 -0.10205916
000160 c1 58 00 3d b5 88 7f 3d a0 ba 07 3e 85 17 c9 3d
       0.031334642 0.062386233 0.13254786 0.09818939
000170 3c 58 2b 3e 07 3b 35 3e c2 66 3a 3e df a1 bd 3d
       0.16732877 0.17698298 0.18203261 0.0925939
000180 de c0 b2 3c b7 19 bd 3d 3f ac 87 3d 17 e5 7c 3d
       0.021820482 0.0923342 0.0662465 0.061741915
000190 8f 69 5c 3e db e0 46 3e 2c ce ca 3d 15 bf 0d 3e
       0.21524642 0.19421713 0.099026054 0.13842423
0001a0 f1 6d 02 3e 2a e4 76 3c 33 a3 d4 3d 89 a2 dd 3d
       0.12737252 0.015069047 0.1038269 0.10822017
0001b0 a9 d3 9e bd 48 07 30 bc 3f 75 06 3e 9f 68 17 3d
       -0.07755215 -0.0107439235 0.13130663 0.03696501
0001c0 83 1d ac bc c1 9b 9e bd cd f2 b8 bd 5e 57 f9 bd
       -0.021010166 -0.077445515 -0.090306856 -0.12174867
0001d0 12 41 34 bd a0 f5 15 3d c1 2e 8f 3d 7a ba 46 3d
       -0.04400737 0.0366112 0.069913395 0.04851768
0001e0 43 9a cd bd 8a bf 8f bd 1a 96 97 bc 08 40 fd 3d
       -0.10039189 -0.07018955 -0.018504191 0.123657286
0001f0 7d 66 e1 3c 12 26 a8 bc 35 2d 3d 3d 65 21 16 bd
       0.02751469 -0.020525966 0.04618569 -0.03665294
000200 fa 7e 21 bd 1b a3 d5 3d 77 e0 05 bd 5d bc 4f 3b
       -0.039427735 0.104315005 -0.03268477 0.0031697967
000210 61 4e ee bd d2 d4 a9 3d c0 e7 f6 3d 8b 04 47 3d
       -0.11636043 0.082925454 0.120559216 0.048588317
000220 dd 4e 8b bd 7d 06 d1 bd 21 80 b0 bd 7b 2e d9 3d
       -0.06802151 -0.10206316 -0.08618189 0.106045686
000230 ff ad 92 3d b6 57 dd 3d 17 ba 89 3d 22 04 01 3d
       0.07162093 0.10807745 0.06724947 0.031498082
000240 5f 57 97 ba bf ba b7 bd 6d 75 ce bd a1 cb e1 bd
       -0.0011546424 -0.08971166 -0.10080991 -0.11025167
000250 d7 c6 45 3d 83 07 6b bd 68 ac c0 bc 61 e1 89 bd
       0.04828533 -0.05738021 -0.02351971 -0.06732441
000260 06 e1 a5 bc 87 66 a9 bd ec 09 9d bd 85 1f 20 3d
       -0.020248901 -0.08271509 -0.07667908 0.03909256
000270 45 98 0e bd a5 5c 95 3d 82 fc 1a bd 59 b7 b0 bd
       -0.034813184 0.07293061 -0.037838466 -0.08628721
000280 98 31 aa bc fe dc 6a bd bc b8 13 bd 24 14 e5 bd
       -0.020775601 -0.05733966 -0.03606485 -0.11185482
000290 c8 9f 8a 3d fb 48 a7 bd fa 43 76 3d 2f 4f 64 3d
       0.06768757 -0.08168217 0.06012342 0.055739578
0002a0 81 ca ae 3d 86 b5 b6 bd d7 7f b3 3d 64 30 64 bd
       0.08534718 -0.089213416 0.08764618 -0.05571021
0002b0 07 6b 33 3d 7f 4d e3 3d ac b7 86 bc 72 f5 59 b9
       0.04380324 0.110987656 -0.016445003 -0.00020786168
0002c0 a0 58 d7 bc 03 28 c8 bd da 6c 6c 3d 67 51 ec bd
       -0.026287377 -0.09773257 0.057720996 -0.11538964
0002d0 91 ed 95 3d 7a 6a b5 3d 7e d2 e5 3d df 5f df bc
       0.07320703 0.088581994 0.11221789 -0.027267395
0002e0 39 7e c5 bd cd 59 db 3c 52 51 86 3d 29 35 f0 bd
       -0.09643216 0.026776219 0.06558479 -0.117288895
0002f0 e0 fd d9 bc 2e 49 90 bd 86 88 23 bc 19 93 6d bd
       -0.026610315 -0.07045208 -0.00998128 -0.05800161
000300 79 29 44 bd ce 50 18 bd 01 5e e5 bd f2 6b c6 3d
       -0.047891114 -0.037186436 -0.111995704 0.09688558
000310 94 b8 ca 3d ee 88 97 bc a3 3e 5a bc 50 83 44 bd
       0.09898487 -0.01849791 -0.013320598 -0.04797679
000320 f2 ef d9 bd 31 a2 ea bd ec 06 34 3d 0a 7e 84 bd
       -0.10641469 -0.11456717 0.043951914 -0.064693525
000330 5f ef 9a bd 9d fd 14 bc be 7d 20 bd 2a 03 1c bd
       -0.07565188 -0.009093669 -0.039182417 -0.038088955
000340 12 49 7b 3b 71 de cc bc c3 11 26 bd f8 ba 66 bd
       0.0038343114 -0.025008412 -0.040544283 -0.05633065
000350 c5 45 c4 bd b3 85 ca 3d a8 f3 40 bd 76 e9 ff 3c
       -0.0958362 0.09888782 -0.04710737 0.031239253
000360 39 9c 30 bd d5 09 8a 3b 75 24 d7 3d 50 75 5b 3d
       -0.043117736 0.004212598 0.105050005 0.053578675
000370 c0 e0 d5 bd bb 14 3e 3d 30 2d e4 3d 92 9a 03 3d
       -0.10443258 0.04640649 0.11141431 0.03212983
000380 2d 9d b3 3d c7 fb f1 3d 09 49 81 bc 00 cd d1 3c
       0.08770213 0.11815601 -0.015781896 0.025610447
000390 76 d7 a3 bd 79 14 c5 bc 79 2c b5 3d c0 10 79 3d
       -0.0800008 -0.024057614 0.08846373 0.06080699
0003a0 09 3c 9a bd 65 88 c0 bd 82 22 a8 bd 62 95 f7 bd
       -0.07530982 -0.09401015 -0.08209707 -0.120890394
0003b0 d3 24 ba bd e5 bf f1 bc e9 6c a0 3d 4a 4d e3 3c
       -0.09089055 -0.029510448 0.07833273 0.027746815
0003c0 6a 89 b5 bd 88 e9 b2 bd 91 c6 a0 3d 9c 57 b4 bd
       -0.088641 -0.08735949 0.078503735 -0.08805773
0003d0 18 7d 8c bc 07 30 53 3d c3 de 60 bd e9 84 51 bc
       -0.017149493 0.051559474 -0.054899942 -0.012788036
0003e0 2c 83 e4 bb c8 d1 e2 bc c5 5b 62 bd a4 2d b5 bd
       -0.0069736447 -0.027687922 -0.0552633 -0.08846596
0003f0 e1 28 c3 bd 5d b4 7e bd 85 69 f2 3d 54 74 69 bd
       -0.095292814 -0.062183727 0.118365325 -0.056995705

conv_block1.2.bias f4 [16]
000000 8b 35 9c 3d 66 74 8d 3d fa 39 dc bd 71 75 b9 bb
       0.076274 0.06906967 -0.10753246 -0.005659752
000010 2a 80 04 bc 72 40 37 3d 90 f5 e1 3c 52 9d f8 bd
       -0.008087197 0.044739194 0.027582914 -0.121393815
000020 98 e3 6d 3c cd c8 c6 bb 5b c7 00 bd 6a a1 e4 3d
       0.014519595 -0.006066418 -0.03144012 0.111636
000030 6f 2b 09 bd e3 34 c3 3d 6c 83 16 3d 21 98 65 bd
       -0.033488687 0.09531572 0.036746427 -0.056053285

conv_block2.0.weight f4 [16, 16, 3, 3]
000000 34 0d a7 3c d1 29 8f 3d 39 ea 5e bd ad 59 5a bd
       0.020392038 0.06990398 -0.05442259 -0.053308178
000010 08 ff a8 3d d3 6f 89 3d f9 9b 3d bd 28 b0 4c 3d
       0.08251768 0.06710782 -0.046291325 0.049972683
000020 d4 f1 31 bc 7f 9e 92 bd 05 b8 84 3c 77 9f 0b 3d
       -0.010860879 -0.07159137 0.016201029 0.034087624
000030 f9 1b cb bc 87 4e 18 3d 28 ea 8f bd 3f 43 56 3d
       -0.024793612 0.037184265 -0.07027084 0.052310225
000040 ed 8e b5 3d 6e 10 85 3d 76 1f 67 3c 98 ce e0 3c
       0.088651516 0.06497274 0.014106622 0.027442262
000050 01 07 77 bd 42 5e aa bc d4 76 01 bc 08 e2 3d bd
       -0.060309414 -0.020796899 -0.007901866 -0.04635814
000060 e4 10 7c bd a3 f6 65 3d 69 76 67 3d 97 de 9a bd
       -0.061539546 0.056143414 0.05650941 -0.07561987
000070 07 6e dd 3c 89 0d 0f 3d 1d 64 a1 3d 5f 9e 46 3d
       0.027030004 0.034925018 0.07880423 0.04849088
000080 55 6f 9c 3d bd 71 d5 bc 28 a0 74 3d 5a c0 8a 3d
       0.076384224 -0.026055211 0.05972305 0.067749694
000090 4a 12 a5 bd d5 31 8f bd aa fe 98 3c 60 e7 3b 3d
       -0.08060129 -0.069919266 0.01867612 0.045874953
0000a0 0a 65 31 bd 89 24 b1 3b 4e 21 2c 3a 82 95 b4 3c
       -0.04330925 0.0054059667 0.0006566242 0.022043947
0000b0 3a 00 3f bd 4e d6 3f 3d f3 3a 60 3d 39 5e 5a bd
       -0.046631075 0.046835236 0.05474372 -0.053312514
0000c0 a4 54 1e 3b 78 87 74 b8 04 e8 c5 3c 8b 6e 9e 3d
       0.0024159336 -5.83003e-05 0.024158485 0.07735928
0000d0 6c d3 d0 3c 55 bb ab bc ea 59 b0 3d 2f 16 bc bc
       0.025491439 -0.02096335 0.086109 -0.022959797
0000e0 aa 30 a6 bc 90 d2 8d 3b cb f6 70 bd f9 11 3e 3c
       -0.020286877 0.0043280795 -0.05882911 0.011600965
0000f0 8c e1 82 bd eb 5e c0 3c ac 00 c2 3c bc 8d 3b 3c
       -0.06390676 0.02348276 0.023681961 0.011447366
000100 53 c5 8f bd e7 f4 a1 bd 86 79 1d 3d e4 88 92 3d
       -0.070200585 -0.079080395 0.038445972 0.07155016
000110 52 54 97 bd ef a0 fc 3c cb f7 7a bd 85 7e ad 3b
       -0.0738913 0.030838458 -0.06127147 0.0052946233
000120 a6 e0 a8 3d c4 ab 87 3d 03 59 62 bd b3 74 57 3d
       0.08245973 0.066245586 -0.05526067 0.052601527
000130 e7 38 44 3d 9e ff 73 bb cf 57 98 3d 5f ee e1 bc
       0.04790583 -0.0037231217 0.07438623 -0.027579485
000140 35 54 58 bc 83 c3 36 bd 3f da 24 3c a0 d7 a9 3c
       -0.01320367 -0.04462005 0.0100618 0.0207327
000150 75 98 9e 3b 2d ec 47 bd 14 cc 1a bd 66 e3 e4 3c
       0.0048399516 -0.04880922 -0.03779228 0.027940463
000160 ac 93 98 bd 10 6b 72 bc b2 a3 a5 ba 69 13 05 bd
       -0.07450041 -0.0147960335 -0.0012637286 -0.032489214
000170 3f 61 03 3d e0 e3 93 3b b6 9b 77 3d e4 f6 be bb
       0.032075163 0.004513249 0.060451232 -0.0058277715
000180 da 2f 56 bd b6 4e 75 3d 18 b4 3f 3c 38 fa e2 bc
       -0.05229173 0.059889518 0.011700653 -0.027707204
000190 13 5a 5b bd 79 6c e5 3c 30 fc 9c bd 03 48 bb 3c
       -0.0535527 0.028005825 -0.076652884 0.022861486
0001a0 cd ba 29 3d c7 98 9b bd 55 91 71 bd 5b 95 79 bd
       0.041437913 -0.07597499 -0.05897649 -0.060933452
0001b0 e5 68 90 3d d1 97 91 3d 85 26 b6 3b cf 30 9e 3d
       0.07051257 0.07109035 0.005558791 0.07724153
0001c0 9f 8d e7 bc 35 cf a6 bd f0 d5 e3 3c e5 5c ed 3c
       -0.028265772 -0.0814499 0.027811974 0.02897496
0001d0 ea 18 a4 3d 3e d2 4c 3b 64 47 86 3d 6d 41 53 3d
       0.080125645 0.0031253244 0.065565854 0.051576067
0001e0 19 1c 62 3d 83 c2 ab bd 32 2e 8a 3d db 60 9a bd
       0.055202577 -0.083867095 0.06747092 -0.07538005
0001f0 4a ff ad 3d 89 05 d3 3b 24 7e 8a bd b7 e0 e4 3c
       0.08495958 0.006439869 -0.06762341 0.027939184
000200 bc 65 4b bc 8a ec 94 bd df 08 be bc 8b 7d 02 3c
       -0.012414392 -0.07271679 -0.02319759 0.007964502
000210 ba fe 76 3d a5 45 8e bc f0 df 6f 3d 2a f9 14 3c
       0.06030152 -0.017367193 0.058563173 0.0090926085
000220 50 e6 24 3b 7e e3 9c 3c c3 dc 5d bd 95 89 8d bd
       0.002516169 0.019151445 -0.054165613 -0.06911007
000230 58 1b e5 bc 94 0f a3 bd 4c 69 25 bd ee 8a 87 3a
       -0.02796714 -0.07961956 -0.040383622 0.0010341087
000240 09 f2 5b bd c0 19 06 bd 30 73 61 bc 4f 36 1b bc
       -0.05369762 -0.0327394 -0.013760373 -0.009473397
000250 cd 10 3d bd db 65 7b 3b 0d e0 5b bc 4e 5c b6 3c
       -0.0461586 0.003836027 -0.013420117 0.022260811
000260 24 f6 2b 3b ff 25 8e bc e3 ab 91 bd 63 ba 78 bd
       0.002623924 -0.017352102 -0.07112863 -0.060724627
000270 07 ea 2c bd 06 9b a9 bc 15 b9 5c 3b 28 c1 17 3d
       -0.042215373 -0.020703804 0.0033679653 0.037049443
000280 60 9f 39 3d 21 c6 0b 3e 93 e9 37 bb b3 41 7c bd
       0.045318007 0.13649799 -0.0028062805 -0.061586093
000290 1b bd 18 3d 53 7c 66 bd c4 3e 3c bc a9 1b dc bc
       0.03728972 -0.05627091 -0.011489574 -0.026868658
0002a0 69 49 01 bd 38 9f fc bc 8f 1a 9d 3d fc 6e 3c 3d
       -0.03156415 -0.03083764 0.07671081 0.04600428
0002b0 d8 37 ac 3c 8d f1 a7 3d 5b 51 9f bd 0f e7 35 3c
       0.021022722 0.08200369 -0.07779189 0.011102452
0002c0 e6 fb 68 3d 7f 92 62 3d ec 8a 89 bd 01 83 fe 3c
       0.056880854 0.05531549 -0.0671595 0.031068327
0002d0 fd f7 25 bd e3 ea fa bb e9 22 a2 bc 94 a2 84 bd
       -0.040519703 -0.007657395 -0.019792037 -0.06476322
0002e0 7b 56 bf bd 14 40 7e bd 96 ea 1e 3d 14 bb 24 3d
       -0.09342667 -0.06207283 0.038797937 0.040217474
0002f0 37 88 68 bd ec 64 c8 bc e5 6f 09 bc 9f 4d a0 bd
       -0.05677053 -0.024462186 -0.008388494 -0.07827305
000300 39 5c 4a 3d ef 0e 64 3d 55 e8 d2 3b 2d 16 7f bd
       0.049404357 0.055678304 0.0064363875 -0.062277008
000310 ad 1e cd 3c 9e ca 70 3d 17 03 9e 3d b6 48 b5 bd
       0.025039041 0.05878698 0.07715433 -0.08851759
000320 cf 11 f5 bd ea 1d 12 3d 7b bd 8f bc 6c 42 cb ba
       -0.11966287 0.03567306 -0.017546406 -0.0015507466
000330 e5 e3 02 bd 8f ac 84 bc 59 39 0f 3e 24 dd 69 bc
       -0.03195562 -0.016195564 0.1398672 -0.014273915
000340 34 09 77 3d 3d c0 98 3d 5a ee 23 3c 02 c7 8f 3c
       0.06031151 0.074585415 0.010005558 0.017550949
000350 1d 14 b9 bb 11 4b 6a 3d 16 2d 9a bd a9 22 08 3d
       -0.0056481496 0.057200495 -0.07528131 0.03323618
000360 a8 e6 39 b6 4c ff a1 3b 86 09 27 bd 6d b5 b2 bc
       -2.7701408e-06 0.004943764 -0.040780567 -0.021815026
000370 53 47 fe bc 4d 03 3a 3d cf 55 61 bd 1f 53 17 bd
       -0.03103987 0.045413304 -0.055013474 -0.036944505
000380 49 3c 07 3d c0 01 d1 bc 6e 69 21 3d 1b f0 7e 3d
       0.033016477 -0.02551353 0.039407186 0.0622407
000390 2f ff f0 bb 73 1f 9e 3d 95 52 1b bd 2b 16 3e bd
       -0.007354639 0.07720842 -0.037920553 -0.04640786
0003a0 12 de 1c bd b3 a6 68 bd 70 ca 67 bd 47 e9 94 bd
       -0.03829772 -0.0567996 -0.056589544 -0.072710566
0003b0 cc bc 89 bd b0 c0 b2 3c ce b0 58 3d 2f 5b ac 3d
       -0.06725463 0.021820396 0.05290299 0.084158294
0003c0 dd b5 90 3d c2 7e 5f bb 63 e4 88 3c 4f 98 0e bd
       0.07065938 -0.0034102653 0.016710466 -0.03481322
0003d0 68 70 0d 3d 77 9b bd bd 4a f3 3f 3d b2 a1 6e bb
       0.034531027 -0.09258168 0.046862878 -0.0036412296
0003e0 3e 2c 26 bb 55 02 f9 3c 95 88 24 bd d2 40 bb 3d
       -0.002535596 0.03039662 -0.040169317 0.09143223
0003f0 58 0e 16 3d a3 b6 51 3d e5 32 5b 3c f5 ae 4e 3d
       0.036634773 0.051199567 0.013378833 0.05045982

conv_block2.0.bias f4 [16]
000000 f8 58 7e bd 66 bf 12 bd 17 d3 41 bd 2f 61 b8 3d
       -0.062096566 -0.035827063 -0.04732045 0.09002911
000010 49 da aa 3d 90 51 89 3d 74 b1 6c bd ea a7 26 bd
       0.08342416 0.0670501 -0.05778642 -0.04068748
000020 32 a2 a5 3d 9c 16 3e bd 2c fa 3e bd 1b 2d 43 3d
       0.08087577 -0.04640828 -0.0466253 0.047650438
000030 f4 19 0b bd 14 46 d3 ba f3 73 d5 3c 0b 9a 70 3d
       -0.033960298 -0.0016118907 0.026056265 0.058740657

conv_block2.2.weight f4 [16, 16, 3, 3]
000000 f5 5e 09 bb 93 7f 97 bd 40 6b 59 3d 18 4c a9 3d
       -0.002096114 -0.0739738 0.053080797 0.08266467
000010 4d 68 86 bd 21 15 e3 ba 61 45 61 bd 6f 66 2e bd
       -0.065628625 -0.0017325022 -0.054997806 -0.042578157
000020 39 0c eb 3c e5 91 16 3d 5c 1b 50 3d 30 82 88 bd
       0.028692352 0.03676023 0.050807342 -0.06665456
000030 19 09 91 bc c6 25 f8 3c 23 f6 aa bc 62 6d bf bc
       -0.017704533 0.03029145 -0.02086932 -0.023367587
000040 91 f7 67 bd 1c 5b 79 3d e5 e1 a9 bd 63 e5 6b bd
       -0.056632582 0.060877904 -0.08295039 -0.057591807
000050 14 82 de 3d 6d 92 99 bd bb 39 77 3d 96 7d a1 bb
       0.10864654 -0.074986316 0.06035779 -0.004928301
000060 af 2b b2 bc 9b 1a 3f bd 4d 91 94 3d 9a b6 5f 3d
       -0.021749346 -0.046656232 0.072542764 0.0546175
000070 3c c7 49 bd 14 e1 3c 3d 51 30 a6 bc c2 62 a3 bd
       -0.04926227 0.04611309 -0.020286711 -0.07977821
000080 2c 4e 61 3a c3 bd 6d 3d 59 87 1f bd ac f5 24 3d
       0.00085947174 0.0580423 -0.038947437 0.040273353
000090 75 8e 31 bc a7 1d a1 3c c1 96 40 bc 72 e3 fc 3c
       -0.010837187 0.01966746 -0.0117546925 0.030870173
0000a0 78 90 bb bd 49 75 61 3c d0 28 33 3d 98 b5 5e bc
       -0.091584146 0.013760873 0.043740094 -0.0135931
0000b0 c8 c1 f5 3c bd 57 15 bc 92 9a 8d bc 7b 3f f1 bc
       0.029999629 -0.009115157 -0.017285619 -0.029449215
0000c0 7c 3c cf bd 62 89 a4 3c 93 fb 55 3d 62 c3 88 bd
       -0.10118958 0.02008504 0.052241873 -0.06677891
0000d0 84 58 5f 3c f6 aa a6 bc 99 bc 8f 3d 2c 49 eb bc
       0.013631944 -0.020345192 0.07018394 -0.028721415
0000e0 02 4a 8d 3d 8a 74 71 3d 6a d1 3c 3d 6e 45 69 3d
       0.068988815 0.05894903 0.04609815 0.05695098
0000f0 16 f6 d4 3c 88 6a e7 3c e8 13 91 bd 91 80 9e bc
       0.02599625 0.02824904 -0.07083875 -0.019348415
000100 be db 21 bc b5 e8 2f 3d cd a9 13 bd 63 cd 0f 3d
       -0.009879051 0.042946536 -0.036050607 0.03510798
000110 8f aa 66 3d 7d fe 08 3d 6c d8 22 3d 22 8d 55 bc
       0.056315 0.033445824 0.039757177 -0.013034137
000120 90 8a b9 3d b9 c7 d5 bd 24 04 00 3d 83 fd 8f 3d
       0.09059632 -0.10438485 0.03125395 0.070307754
000130 82 38 5e bd 6a 98 f1 bd cf c2 07 3e ca 17 3d bc
       -0.05425311 -0.11796649 0.13257907 -0.011541316
000140 af 54 8f 3c c5 55 b8 bd 0e d0 2f bd c0 df 30 3d
       0.017496435 -0.09000734 -0.042923026 0.043182135
000150 9b bf bf bd a5 3b e9 b9 61 cb fd 3c f4 d5 c6 bc
       -0.09362718 -0.00044485662 0.030980768 -0.024271943
000160 9c 21 f9 3c 29 66 94 3d 12 01 e3 bd da 90 aa bd
       0.030411534 0.07246048 -0.110841885 -0.083284095
000170 6c 04 d3 3d 6a 17 84 bd 30 59 08 3b 59 ca 14 3c
       0.10303578 -0.064497784 0.0020805113 0.009081447
000180 75 41 09 3d 17 3e 6f bd 41 c5 34 3c 2f c3 ef bc
       0.03350969 -0.058408823 0.011033357 -0.029267875
000190 e5 0a d2 bc d0 4b cd bc 55 04 01 3b de e0 60 3d
       -0.02563996 -0.025060564 0.001968642 0.05490195
0001a0 bf 0a 00 3c f4 75 2a bb 1c 53 8d 3d 7a 74 94 3d
       0.007815062 -0.0026010247 0.069006175 0.07248779
0001b0 f0 3b 0e 3d ef 45 84 bd 7f ce 88 3c f6 8e bb 3d
       0.03472513 -0.06458651 0.016700028 0.09158127
0001c0 7a 27 99 bd b2 1a d4 bd 58 be 81 3d ef e6 b7 3d
       -0.07478233 -0.10356654 0.06335133 0.08979594
0001d0 5f 1a 00 be 87 a0 25 bd 5a af db bc 06 aa 8f bd
       -0.1251006 -0.040436294 -0.026817013 -0.07014851
0001e0 cc 19 56 bd 36 00 8d 3d 4f 98 91 3d 8a 8c 77 bd
       -0.052270696 0.06884806 0.07109129 -0.060436763
0001f0 0d ea 4e 3b e9 07 80 bd ad 97 30 3d a2 2c 93 bd
       0.003157261 -0.06251509 0.0431134 -0.071862474
000200 1f e3 54 bd 30 fb ca bc 66 97 8a 3b 3e 98 0c 3d
       -0.051974412 -0.024777979 0.004229474 0.034324877
000210 fb 07 87 bc 0d d3 b0 3c db 0c 4b 3d 17 29 ba bb
       -0.016483298 0.021585012 0.049572807 -0.005681168
000220 f9 3d ff 3b 56 44 9f 3b ac aa b2 ba 69 59 4b 3d
       0.00778937 0.004860441 -0.0013631186 0.049645815
000230 bb 80 35 3d 9f b3 36 bd e6 2a a3 3d bd fe 42 3d
       0.04431222 -0.044604894 0.079671666 0.04760622
000240 54 76 b4 bc 7f 55 8a 3d 86 93 b1 3b 53 a7 55 3d
       -0.02202908 0.06754588 0.0054191975 0.052161526
000250 18 49 8b bd 74 44 98 3d 60 31 ac 3d a8 fc 72 bd
       -0.06801051 0.074349314 0.08407855 -0.059322983
000260 d0 53 99 bd 84 5f f0 bc 00 6c 61 bd ce 9a e6 3c
       -0.07486689 -0.02934242 -0.055034637 0.028149989
000270 de 72 3c 3d 0f 18 5f 3c 31 1d b7 3d 5c 3a 15 3d
       0.046007983 0.013616576 0.08941115 0.03643261
000280 aa a2 40 bc 61 3b 9e bd 06 2d c0 3c 4d 96 b5 bd
       -0.011757532 -0.077261694 0.023458969 -0.08866558
000290 b0 ce e4 bc bb e8 dc 3b dc 69 32 bd 68 d0 01 3d
       -0.027930588 0.006741611 -0.043557987 0.031692892
0002a0 e3 45 41 3d ca 53 cf 3d ab ab 9d 3d f8 55 ae bd
       0.04718579 0.10123403 0.07698759 -0.08512491
0002b0 89 03 26 be e8 56 09 be bf a3 1d be ca c3 bc bd
       -0.16212286 -0.13412058 -0.15394495 -0.09217031
0002c0 5b 3c ab bd 03 7d 1e be ac 82 a0 3c 6d 5d 09 3e
       -0.08361121 -0.15477376 0.01959356 0.13414545
0002d0 f6 17 9d bd 48 cf dc bd 24 a1 42 3c d9 5f c0 3c
       -0.07670586 -0.10781723 0.011879239 0.023483204
0002e0 d0 81 e2 3d 5a 8c 85 3d 2c 67 05 3e 9e 64 06 bd
       0.11059916 0.065209106 0.13027638 -0.0328108
0002f0 fe 68 8f 3d ff 8b 5a bd c1 6b 07 bd a6 b7 2b 3d
       0.070024475 -0.053356167 -0.033061747 0.041923188
000300 6f 77 56 bb 9d 98 55 3d ee 54 b3 bd 14 cb 69 3d
       -0.0032724997 0.052147496 -0.087564334 0.057078436
000310 d4 07 8f 3d b0 64 00 3d 66 a6 89 3d 02 c0 73 bd
       0.06983915 0.031346023 0.06721191 -0.059509285
000320 3c e6 96 bc df d1 cf 3c 53 e3 40 3d 0a 6f 36 bd
       -0.018420331 0.025368629 0.047091793 -0.04453949
000330 79 3d 59 3d 93 c0 e0 bc 24 32 36 bd 04 88 70 3c
       0.05303714 -0.027435577 -0.04448141 0.014680866
000340 d3 a3 79 bd 7f da 98 bd 02 b1 04 3d 3c d5 ee 3c
       -0.06094725 -0.0746355 0.03239537 0.029154412
000350 69 0e e6 3c db 2f 58 bb 54 bf 80 bd 03 83 8c bd
       0.028083043 -0.0032987508 -0.06286493 -0.06860926
000360 84 b0 5a 3e e7 81 9d bd 6b cb 31 bd a0 e3 01 3e
       0.21356398 -0.076907925 -0.043406885 0.12684488
000370 2c 8b 46 bd 02 1c 24 be b7 c2 ad bd aa 90 46 be
       -0.04847257 -0.16026309 -0.084844045 -0.19391122
000380 37 d1 21 3d ba de d2 bd ce b4 ac bd fd b5 aa bd
       0.039506163 -0.10296388 -0.08432923 -0.08335493
000390 ea d2 46 3d d8 b2 98 3d 7d f6 fe 3c 40 a5 98 3d
       0.048540987 0.07455987 0.031123394 0.07453394
0003a0 08 f9 03 bd 2f 9c 6a bd 94 3e 99 bd b5 22 26 bc
       -0.032219917 -0.057277855 -0.07482639 -0.010140111
0003b0 4b ef f8 bb dd 49 45 bd 8e 3c bd bd 44 62 78 3c
       -0.0075968853 -0.048166145 -0.092400655 0.015160147
0003c0 af 01 9f bd 2a dc a6 3c 9f b8 16 3d a5 73 0d 3d
       -0.07763993 0.020368654 0.036797162 0.034534115
0003d0 52 5d 85 bd 37 93 67 3d e4 3f ae bc 3e a0 9f 3c
       -0.0651194 0.05653688 -0.0212707 0.01948559
0003e0 1e e8 25 3d a4 4e 05 3d 11 02 67 3d c3 61 56 3d
       0.040504567 0.0325457 0.056398455 0.052339327
0003f0 56 68 c3 3d 15 42 0c bc 2e a7 5a bb 80 a5 74 bc
       0.09541385 -0.008560677 -0.0033363807 -0.014932036

conv_block2.2.bias f4 [16]
000000 f2 9c 63 3d d3 5f b7 3d 33 9e 7a 3d 1c 71 5a bd
       0.055569597 0.08953824 0.061186027 -0.053330526
000010 1b 26 b0 bc e1 47 c8 bc d2 1b 28 bd a9 98 17 3d
       -0.021502545 -0.024448337 -0.041042157 0.037010822
000020 17 1b 48 3b 45 1d 31 bd 61 5e 13 bd 9d db a9 bd
       0.0030533725 -0.043240804 -0.03597868 -0.08293841
000030 09 2d ae 3b a0 3d 2b 3d 18 78 5c 3d 41 63 2d 3d
       0.005315427 0.041806817 0.053825468 0.042330984

fully_connected.1.weight f4 [10, 784]
000000 ba 91 ae 3c 82 13 3c 3c 4f 21 19 bc cb 0b 03 bd
       0.021309722 0.01147926 -0.00934632 -0.03199367
000010 ad 83 f7 3c 93 87 c1 bc 00 e2 62 bc 63 19 37 3c
       0.030214155 -0.023624217 -0.013847828 0.011175486
000020 e7 bf 41 3c 07 1c cd bc ce 17 23 3c 17 96 8d bc
       0.011825538 -0.025037779 0.009954406 -0.017283482
000030 46 cd c6 3c b1 1d dc 3c a1 15 08 3c a3 19 8f bc
       0.024267804 0.026869627 0.008305938 -0.01746828
000040 06 c8 8a bc 9f 9c a5 3c 18 91 6b 3c 63 93 2c 3b
       -0.016941082 0.020216284 0.014377855 0.0026332967
000050 a0 8d 38 3d fb ed 37 bc 57 4f b6 bc c6 0d 9f 3c
       0.04505694 -0.011226173 -0.022254629 0.019415747
000060 53 89 a9 3d 50 79 36 bd cd 8b ac bb 4c 62 2d bc
       0.08278146 -0.044549286 -0.005265689 -0.010582518
000070 61 39 bf bc 76 19 78 bc 1a f7 e0 3c b1 c3 84 3d
       -0.02334279 -0.015142789 0.027461577 0.06482638
000080 03 2e 63 bd d2 10 96 bc 2c 6e 92 3c f0 8e cb bb
       -0.055463802 -0.018318567 0.0178748 -0.006212108
000090 46 a7 b5 ba 36 59 26 3d 61 5a 8e bc 02 40 e5 bb
       -0.0013859055 0.040612422 -0.01737708 -0.0069961557
0000a0 a4 36 44 bd 6f b0 9d bc 19 08 86 3c 2c ab 2b 3c
       -0.04790367 -0.01924917 0.016361283 0.010477822
0000b0 6b 76 bd bc f6 86 07 bd 85 a8 41 bd af 9b 43 bd
       -0.023127755 -0.033087693 -0.047279853 -0.047755893
0000c0 73 0f 87 bc 37 e4 f2 bc 21 d8 1a bc 1f 5c 4a bc
       -0.016486859 -0.029649837 -0.009450943 -0.012351065
0000d0 63 06 a8 3c aa 22 c4 3c 26 c7 07 3d e1 a8 cf bc
       0.020510858 0.02394231 0.033148907 -0.025349082
0000e0 a8 23 b9 bc 3a 27 61 3b 64 4e 43 3c 02 1d 78 3b
       -0.02260001 0.0034355656 0.011920545 0.0037859087
0000f0 42 5d 31 bd c3 68 f0 bc 0f d3 4d bd 19 09 da bc
       -0.04330183 -0.02934683 -0.05025011 -0.026615666
000100 7a 9e 02 3b 81 9e be bb eb 37 25 bd 42 75 34 bd
       0.0019930885 -0.005817235 -0.04033653 -0.04405714
000110 6b 00 6e bd d6 f9 42 bc 5d ce e1 bb fe e7 c9 bc
       -0.058105867 -0.011900386 -0.0068910555 -0.024646755
000120 48 37 94 bc 1a 24 84 3d 55 f1 c6 bc ec 22 58 bd
       -0.018092766 0.06452198 -0.024284998 -0.05276768
000130 30 35 40 3b 4b 18 df bc 48 c0 0e bd 1c cb 0e bd
       0.0029328577 -0.027233263 -0.034851342 -0.03486167
000140 cc ff e7 3c c3 6d 31 bd 96 82 33 3d 8a 96 28 3d
       0.028320216 -0.043317568 0.04382571 0.04115919
000150 e5 f8 7e bc 6a 56 3a bc 16 2e 98 bc 65 8b 0f bc
       -0.015562271 -0.011373142 -0.018576663 -0.008761262
000160 ff a5 00 3d fe 2b 31 bc 0b a8 6f 39 d7 dd 0c bd
       0.031408306 -0.010813711 0.00022855417 -0.03439125
000170 a8 33 93 bc 01 67 0a 3b 22 b3 f8 bb ce d0 46 bd
       -0.017968968 0.0021118524 -0.0075897137 -0.048538975
000180 04 2b 35 bd 67 74 4b bd b0 16 fc bc 2f 75 19 bd
       -0.044230476 -0.049671557 -0.030772537 -0.03746527
000190 85 cb ac bc e0 ba 15 bc 46 22 07 3d 6d 61 ab bc
       -0.02109314 -0.009138793 0.03299167 -0.02092048
0001a0 9d a0 c5 bc 9b 08 02 bd 00 21 f2 3c ea 16 06 bc
       -0.024124438 -0.031746488 0.029556751 -0.008184174
0001b0 5e 48 64 bc 4e d8 ab 3c a4 6a 07 bd 7d 73 52 bc
       -0.013933269 0.020977166 -0.033060685 -0.012844917
0001c0 88 be 0b 3d 2e 31 b4 3c 86 d7 05 bd a2 8f 55 bd
       0.03411725 0.021996107 -0.032676242 -0.052138932
0001d0 97 22 f9 bc 1b 38 3f 3a 86 f9 b5 bc 5c b5 ba 3c
       -0.030412002 0.0007294432 -0.022213709 0.022791557
0001e0 cf be 01 bd 99 09 9c bd db 9f 72 3b 12 37 43 bb
       -0.03167611 -0.07619018 0.003702155 -0.0029787463
0001f0 73 80 30 bc c5 7e 49 bd 77 cb 4f bc bd 98 29 bd
       -0.010772812 -0.049193162 -0.012682787 -0.04140543
000200 4b 90 8f bd 4f 1c 0c bd dd dd 5d bc 0f 15 e4 bc
       -0.070099436 -0.034206685 -0.013541666 -0.027842073
000210 97 cb 83 3b 1c 1f aa 3c 32 54 d1 bc 7c d9 80 bd
       0.0040220725 0.020766787 -0.025552843 -0.06291482
000220 0d 11 fb 3a a2 10 b3 bc 0b d3 4e 3c d4 32 ce bc
       0.0019154862 -0.021858517 0.012623559 -0.025170721
000230 66 52 88 bc dd 75 82 b9 26 0c 14 3d 3f 60 16 3c
       -0.016640853 -0.00024883347 0.0361444 0.00917822
000240 82 3d 91 bc 4a 69 a0 bc f7 92 fc bc d2 8e 8c bb
       -0.017729525 -0.019581456 -0.030831797 -0.0042894864
000250 f9 37 b9 bb 01 1a 62 3b b4 77 29 3c 54 b3 53 3c
       -0.0056524244 0.0034500363 0.010343481 0.012921173
000260 ac da 8f 3c ac 8e bc bb 05 3d 6c bc 03 a0 98 3c
       0.017560326 -0.0057543125 -0.014418845 0.018630987
000270 fe be 04 3d 54 4f b6 3c c9 7b f5 3c 9b aa 19 3c
       0.032408707 0.022254623 0.029966252 0.009379054
000280 d9 c4 fa 3c ab d9 23 3d 42 a1 db bc 31 ed d9 bc
       0.030611442 0.040002506 -0.026810292 -0.02660236
000290 b3 df 0d bc 8e db 3d 3d d8 5b 0b 3d a9 1f 2f bb
       -0.008659291 0.04635196 0.034023136 -0.0026721752
0002a0 31 28 c4 bc 0e f5 82 bc 08 3f b9 3c 60 4b 32 3d
       -0.023944946 -0.015985992 0.022613063 0.043528914
0002b0 e0 78 e8 3c 08 e3 19 bc 82 fe ed 3c fd 85 06 3d
       0.02837795 -0.009392507 0.029052023 0.032842625
0002c0 46 44 92 b9 0f 98 71 bc 42 e2 3d 3c e3 41 43 bc
       -0.00027898158 -0.014745726 0.011589589 -0.011917564
0002d0 62 91 18 3d 13 76 20 bc 51 4b 16 bb bc 72 e0 bb
       0.037248023 -0.009793776 -0.0022933076 -0.006849615
0002e0 8d a3 97 bc 45 1b cc bc 53 3d b0 bc a7 95 af bc
       -0.018510604 -0.024915347 -0.021513617 -0.021433664
0002f0 dc b1 d2 3c bc 3b 2b 3c ba ed f6 bb ad cd fb bc
       0.025719576 0.0104512535 -0.0075356634 -0.030737722
000300 8b 02 3b bd f8 e0 b8 bc 77 4d 1e 3c 98 c2 11 bd
       -0.045656722 -0.022568211 0.009662024 -0.03558597
000310 cd 60 a4 3c 3c af bc 3c 25 82 d0 ba 6f 53 dc bc
       0.02006569 0.023032777 -0.0015907927 -0.026895253
000320 5a 93 29 3b 8d 27 3e bc 58 70 07 3c 57 dd e9 bb
       0.0025875182 -0.011606109 0.008266531 -0.0071369815
000330 73 44 91 bb 2e 5d a0 bc 0b 06 d2 3c b6 51 2d 3b
       -0.0044332086 -0.019575682 0.025637647 0.0026446409
000340 38 c1 ee bc 80 8c 87 ba 6e e3 8d 3c 4b 61 6b 3c
       -0.029144868 -0.0010341555 0.017320361 0.014366458
000350 91 7e 2d 3d e0 a2 1a 3d d6 4e 36 bc 6b 31 a8 bc
       0.04235703 0.037752986 -0.011127194 -0.020531377
000360 b1 dd 37 bc 7e 1f 32 3d 3a 7f 28 3d ca 5d 95 3d
       -0.011222289 0.043487065 0.041136958 0.072932795
000370 f1 ad 24 be 9f 3a 8b 3c 02 b8 c3 3d 6d 29 fe bc
       -0.16081978 0.016995726 0.09556581 -0.031025613
000380 dd f4 e5 3c 5e 69 f4 3b 51 96 02 3d 85 8d 62 bd
       0.028070861 0.00745885 0.031881634 -0.055310745
000390 95 21 0c 3d 39 22 88 3d 44 dd b6 bb 89 b1 00 bb
       0.034211714 0.066471525 -0.005580576 -0.001963707
0003a0 92 a4 a9 3c 95 c8 8d bd fe 64 3a bd d8 15 40 3c
       0.020708356 -0.069230236 -0.04550647 0.011723958
0003b0 33 e5 9f bc d3 87 72 bc 5b fc d7 bc a6 75 3a bc
       -0.01951847 -0.014802891 -0.02636545 -0.011380589
0003c0 2d 9b 7b 3c 82 29 a9 bd 82 7a 30 bd b6 04 20 bc
       0.015356821 -0.0825987 -0.043085583 -0.009766748
0003d0 6c 89 e7 bc 2d 39 a8 3b bb cb fd bb bc fe c4 3c
       -0.02826377 0.005133769 -0.007745234 0.024047248
0003e0 aa b1 17 bd 0d ae 14 3a 02 3c 6a 3c 6b 07 bb 3b
       -0.037034668 0.00056716875 0.014296534 0.0057076714
0003f0 a9 5e 1e bc 80 69 e1 3c 64 d6 c2 bc a6 51 17 3d
       -0.009666123 0.027516127 -0.02378387 0.0369431

fully_connected.1.bias f4 [10]
000000 87 ca e4 3b 27 6c 34 3d 80 4a cb bc a6 c0 c9 bc
       0.006982151 0.044048455 -0.024815798 -0.024627995
000010 3f b4 28 3c a6 c2 03 bd b8 46 ed bc 58 36 29 bc
       0.01029688 -0.032168053 -0.028964385 -0.010327898
000020 34 8a ff bc 98 c1 f6 3c
       -0.03119383 0.03012161
